ML/HW1/models/model.pth (torch, 26127 bytes, 3 tensors)

net.0.weight f4 [64, 93]
00000000: afeb 713d 09d3 89bb 860c a0bc c03d 65bc
00000010: d271 933c 9601 c23d b305 233d c435 4fbd
00000020: fc26 843d 8f95 91bc 763b 7a3d ac08 993d
00000030: 1db5 bebd d205 8fbc 6932 073d 332d 7abb
00000040: dd11 343d d244 32bb 0710 963d c3e2 b13c
00000050: 5399 cc3d 8e0b 343e 7adb 823d 0d92 303d
00000060: b99f b3bd 4aba 413d d37f fbbc 86de 143d
00000070: 2bd5 afbc e6c4 63bd 5623 193d e7ec cd3d
00000080: f854 9cbd d1a4 d1bd 6b0f 003c 8587 1dbd
00000090: 4e3c 263e 41c3 cfbb 3c62 afbc b870 b23c
000000a0: 6ef7 9b3c afa2 4e3d 0777 adbd 3807 2dbe
000000b0: 9717 10bd 1d07 d9bd 8e36 aabd 2255 0a3d
000000c0: 3069 5dbd 327c 7cbb 43c0 fabd c4a4 c1bd
000000d0: b3a6 58bd bcbc cc3d 0144 a23d d98b acbd
000000e0: c95c dc3d 0013 063e f9f7 b83b 529b 92bd
000000f0: 0b39 b2bd 5b05 2bbe 55e1 043c e4d3 f9bd
00000100: 7b9c 1e3d d891 38bd 2296 f23d 42c0 03bd
00000110: 82dc 8e3d 2947 11be a9c9 243d c3cc 91bd
00000120: 1596 103e b415 c13d 6f88 4c3d 7e0f 1a3e
00000130: d834 ca3d 9e2b d6bd b5b7 b4bc 3945 7ebd
00000140: 87ae 793b 4555 2dbe 6dad 02be 4531 acbd
00000150: c1ce b33c 219a 113d 298f 52bd 0529 c0bc
00000160: 0897 493d baa5 4abd 85f5 5a3d 0f2c a53d
00000170: 52e5 643e 6116 2a3c 0655 35be f989 6d3d
00000180: 1d9a 8cbb 87dc dcbb 84ad 5dbb 145c 823d
00000190: dccc 94bd acb5 30bd e9e3 26bd 1d37 833d
000001a0: 6840 f9bc 8ac7 9a3c 374a 373e 8ef8 1bbb
000001b0: c62f 243d 5b32 02bd 2a8f 733c f490 8fbd
000001c0: dafe ecba b504 eb3d c14d 423e 2c9f c03c
000001d0: f374 193e eb48 ec3d 49ec 383d 6a84 3bbd
000001e0: b5a1 083e 31e6 913d 9da8 a43b da2c 5abd
000001f0: 88da 1d3d e562 62be 828a 7bbd 556c 013e
00000200: d9db af3d 9220 cf3d 5486 e7bd b8df 69bc
00000210: 40c0 213d 094a 1f3c 7926 8f3d 9fa5 153d
00000220: f42a 4ebd d8a0 27bc d806 af3d 27b4 973c
00000230: 9a7c 8d3d b2bc e2ba dd35 32bd 7427 ba3b
00000240: 19f0 8b3d 37eb 07bb 1755 4cbd 0796 9ebd
00000250: 632d 1f3a 97ea c5bd 9640 303c a4e9 d23d
00000260: 7c38 90bd 7f54 c6bd 253d c7bb d800 aa3d
00000270: e937 3a3d 4b63 2d3d b17b 68bb c6a9 413c
00000280: 9f55 16be 5282 693d 611b 8cbc 3875 19bd
00000290: 3a08 a4ba a0dc 09bd c1f8 e4bd 7405 9fbd
000002a0: 8078 143f 8554 183d 1837 ef3d 69a4 d63c
000002b0: c693 44bc 843e 603d d9ac 0ebe bcfb 003a
000002c0: aed8 02be 2c5f 8a3d 2ca2 983c 57f0 ee3d
000002d0: 7086 783d 9491 1e3d d7c1 ab3d 7235 6b3c
000002e0: 9e7b d03c 0bb4 19be 71ab 8ebc d0f5 16be
000002f0: 8102 1dbd af0f 8dbc 51c7 09be de68 193e
00000300: 226d 583d fe08 3f3d 7f1e 873d 93db ad3c
00000310: eed8 0b3d 8580 bfbc e462 d0bc 5a62 053c
00000320: 555a 4b3c 0c18 353e 4d13 ba3d 2b67 31be
00000330: 07db 2ebc b77a a63d 104d 6f3d a07c 413e
00000340: 5ced 083e 60bf 3e3d 2014 60bc 4dcb 003d
00000350: 0348 65be 32ba af3d b2b3 a93d b3c9 323d
00000360: d17f 263c cfd3 1c3e f401 80bd 928f 913c
00000370: bdc6 b4bc 6420 97bd f348 043d 93cd d8bd
00000380: 8b8b 3cbd 5f76 d03d 4387 8b3c 9f99 103d
00000390: e0ca c93c a773 c7bd 4fbe efbc ff7c 06bc
000003a0: 5c2c 513d 9fff 843c f020 d8bd 3e0e e2bc
000003b0: cc0f bfbd 1519 85bd e4fc 783d 186e 233d
000003c0: e03e 13bb fe36 9bbd 13a7 92bd 644d b4bd
000003d0: d37e d7bc 6794 b4bc 8895 01bd 683e 84bd
000003e0: 4073 a93d bedf 88bc 1a5f 163e 1f33 693d
000003f0: f756 39be acad 0cbe 0a31 dabd db6c 9e3d
0.059062656 -0.0042060656 -0.019537222 -0.013991773 0.01799861 0.09472959 0.039800357 -0.050588384
0.06452748 -0.01777151 0.061091863 0.07472357 -0.09311888 -0.01745883 0.03300706 -0.0038173913
0.04396235 -0.0027201665 0.07327276 0.021714574 0.09990182 0.17582533 0.06389518 0.043108035
-0.08770699 0.0472968 -0.0307006 0.036345027 -0.021463951 -0.0556077 0.037387215 0.10054951
-0.07633394 -0.10236514 0.007816176 -0.03845932 0.16233942 -0.0063404148 -0.021409146 0.021782264
0.019038882 0.050448116 -0.08469968 -0.16897285 -0.035178747 -0.1059706 -0.08311187 0.033772595
-0.054055393 -0.0038526175 -0.12243702 -0.09455255 -0.05289335 0.09996936 0.07923127 -0.08425111
0.10759885 0.13093185 0.005644795 -0.07158531 -0.08702286 -0.16701262 0.008110364 -0.12198618
0.03872345 -0.045060962 0.11845042 -0.032165773 0.06975652 -0.14187302 0.04023138 -0.07119133
0.14119752 0.09427968 0.0499348 0.15044972 0.098733604 -0.10457538 -0.022060255 -0.062077735
0.0038098411 -0.16927059 -0.12761469 -0.08407835 0.021949174 0.03554738 -0.05140606 -0.02345706
0.0492163 -0.049474455 0.053456802 0.08065044 0.22353104 0.010381312 -0.17708215 0.05799291
-0.0042908327 -0.006740156 -0.0033825347 0.06365219 -0.07265636 -0.043142006 -0.040744696 0.064069964
-0.03042622 0.018893976 0.17899404 -0.0023799273 0.040084623 -0.031786304 0.014865676 -0.070100695
-0.0018081323 0.11475507 0.18974973 0.023513399 0.14986019 0.115373455 0.045147214 -0.045780577
0.13342936 0.07123984 0.005024983 -0.05326543 0.038538486 -0.22108038 -0.06141139 0.12638982
0.085868545 0.10113634 -0.11304918 -0.01427453 0.039489985 0.009722241 0.0698976 0.0365349
-0.050333932 -0.010231219 0.08546227 0.01851852 0.069085315 -0.0017298667 -0.0435084 0.0056809727
0.06832904 -0.0020739564 -0.049885835 -0.07743459 0.0006072132 -0.09663885 0.010757586 0.1029847
-0.070420235 -0.09684085 -0.006080287 0.08300942 0.045463476 0.04233102 -0.0035474116 0.011820262
-0.146811 0.05700905 -0.017102899 -0.037465304 -0.0012514659 -0.03365767 -0.111802585 -0.07764712
0.5799637 0.03718998 0.1168043 0.026201444 -0.011998123 0.05474712 -0.13933124 0.0004920324
-0.12777969 0.06756434 0.018632017 0.11666935 0.060675085 0.038713053 0.083865814 0.014356004
0.02544957 -0.15010087 -0.017415734 -0.14742208 -0.038332466 -0.017219393 -0.1345494 0.1498141
0.052838452 0.046639435 0.065976135 0.021222865 0.034142427 -0.023376713 -0.02543778 0.008141125
0.012411674 0.17684954 0.090857126 -0.17324512 -0.010672337 0.08128875 0.058423102 0.18895197
0.13371795 0.04656923 -0.013676673 0.031443883 -0.22390752 0.08580436 0.08286227 0.043649387
0.01016231 0.15315174 -0.062503725 0.017768655 -0.022067422 -0.07379225 0.032296132 -0.10586085
-0.046031516 0.101788275 0.017032271 0.035302754 0.024632871 -0.09738856 -0.02926555 -0.008208512
0.051067695 0.01623517 -0.10553157 -0.027594682 -0.09329185 -0.06498925 0.06078805 0.039899915
-0.0022467896 -0.07578848 -0.07160773 -0.088038236 -0.026305592 -0.02204342 -0.031636745 -0.064572155
0.08273935 -0.016708251 0.14684716 0.05693352 -0.1809958 -0.13738126 -0.10653885 0.07735606

net.0.bias f4 [64]
00000000: cf26 e03e 297f 6e3f 9df4 693f ebf9 ecbd
00000010: 71ae f9bd 44a7 e03d 8e59 f9bc c246 9ebd
00000020: 0e29 ee3d 62e7 e33e 4801 b8bd 8ae8 683f
00000030: d321 773d 6b08 c83f ae67 16be ea81 fe3e
00000040: e2d4 6a3e b908 dd3e 73f5 4ebe 0424 383e
00000050: 5af7 a63e ac2c e43e 66bb 43be ecb3 0abe
00000060: a59c 313d 4101 8d3e cdcc 843e 8d23 393f
00000070: ea0f e8bc 2821 9bbd d528 b63e 696a 533f
00000080: 0bd7 bc3e c74c 253f 21a8 a43e 46e9 23be
00000090: 8f88 8ebd 66a9 313e 9106 0e3f 73e2 083f
000000a0: d5a0 51be 4106 b03d 3a12 ddbd 6944 0cbe
000000b0: 9ff4 7c3e 8e8c be3e f684 0ebb a3a9 d23e
000000c0: 4cb6 923e 5654 d63e cd07 943e 3d42 3b3f
000000d0: 38c2 f93d 158c ee3d e6cd c63e 7c14 4b3f
000000e0: 4fd8 933d 0034 84bd 8216 113f e2d0 323f
000000f0: 53a2 7a3d dfa2 9f3e d8a6 4fbe 6e20 93bc
0.4377961 0.9316278 0.91388875 -0.115711056 -0.12191475 0.109694034 -0.03043821 -0.0772834
0.11628924 0.4451247 -0.089846194 0.90979826 0.06033499 1.5627569 -0.14687988 0.49708492
0.22932771 0.43170717 -0.20210819 0.17982489 0.3261059 0.44565332 -0.19114456 -0.13545197
0.04336228 0.2754002 0.259375 0.7231987 -0.0283279 -0.075746834 0.35578027 0.82584244
0.36882815 0.6457028 0.32159522 -0.16006956 -0.0695964 0.17349777 0.5547877 0.53470534
-0.20471509 0.08594943 -0.10794492 -0.13697971 0.2470269 0.3721661 -0.0021746731 0.41145048
0.28654706 0.41861218 0.28912202 0.73147947 0.121952474 0.11647812 0.38828963 0.7932813
0.07218992 -0.06455231 0.5667497 0.6984998 0.06118996 0.31178948 -0.2027849 -0.0179598

net.2.weight f4 [1, 64]
00000000: 2276 9d3e cde7 553f b07c 663f 59a0 2b3e
00000010: 49fc 593e 230b e43d 027e ab3e 2694 833e
00000020: 5f93 203f 399a 073f c91d f13e 7881 3b3f
00000030: fa8f 263f bbe1 b33f 1f81 7dbe 460e 543e
00000040: ccb1 ac3e b896 1b3f 99c1 a63e ab7f e8be
00000050: 32c4 213f 82a2 4f3f 43bf bc3e ca10 983e
00000060: 2e97 b13e a258 db3e 5ecd 823e 81ff 343f
00000070: 52af 653e 95c7 8f3e c390 003f 95f3 283f
00000080: 7566 8d3e 3833 273f 825c e93e 7670 923e
00000090: 99db 233e e9db ff3e a9d0 183e d96a 113f
000000a0: 1421 963e 67f7 8f3e e46b c03d 5419 023e
000000b0: 4f79 ac3e 9e85 ff3e bfa4 0f3e da2b e43e
000000c0: 052c c83e 1000 e73c 0410 ad3e 9a23 4c3f
000000d0: fb34 d23e 0030 953e ed4a 373e 9640 4a3f
000000e0: eae7 d43e 1b95 9d3e 4890 b43e e32a 293f
000000f0: 9af1 293e cf95 f03e 3f86 d93e 77e0 11bf
0.3075419 0.83556825 0.9003401 0.16760387 0.21287645 0.11134937 0.33494574 0.25698966
0.6272487 0.529697 0.47093037 0.7324443 0.6506344 1.4053262 -0.24756287 0.2070857
0.33729398 0.60776854 0.32569578 -0.45409903 0.63189995 0.8110734 0.3686467 0.2970031
0.34685653 0.4284106 0.25547308 0.7070237 0.2243016 0.28081957 0.5022089 0.65996677
0.2761723 0.6531253 0.4557839 0.28601426 0.16001739 0.49972466 0.14923348 0.5680366
0.29322112 0.2811844 0.093955785 0.12704974 0.336863 0.4990663 0.1402769 0.44564706
0.39096084 0.028198272 0.3380128 0.79741824 0.41056046 0.29138184 0.17899676 0.790048
0.41583186 0.3077782 0.35266328 0.66081065 0.1659607 0.46989295 0.42485234 -0.5698313
